DenseNet Model training starting now!
Model: "densenet"
__________________________________________________________________________________________________
Layer (type)                    Output Shape         Param #     Connected to                     
==================================================================================================
input_6 (InputLayer)            [(None, 224, 224, 3) 0                                            
__________________________________________________________________________________________________
conv2d_181 (Conv2D)             (None, 112, 112, 64) 9408        input_6[0][0]                    
__________________________________________________________________________________________________
batch_normalization_106 (BatchN (None, 112, 112, 64) 256         conv2d_181[0][0]                 
__________________________________________________________________________________________________
activation_181 (Activation)     (None, 112, 112, 64) 0           batch_normalization_106[0][0]    
__________________________________________________________________________________________________
max_pooling2d_11 (MaxPooling2D) (None, 56, 56, 64)   0           activation_181[0][0]             
__________________________________________________________________________________________________
batch_normalization_107 (BatchN (None, 56, 56, 64)   256         max_pooling2d_11[0][0]           
__________________________________________________________________________________________________
activation_182 (Activation)     (None, 56, 56, 64)   0           batch_normalization_107[0][0]    
__________________________________________________________________________________________________
conv2d_182 (Conv2D)             (None, 56, 56, 128)  8192        activation_182[0][0]             
__________________________________________________________________________________________________
batch_normalization_108 (BatchN (None, 56, 56, 128)  512         conv2d_182[0][0]                 
__________________________________________________________________________________________________
activation_183 (Activation)     (None, 56, 56, 128)  0           batch_normalization_108[0][0]    
__________________________________________________________________________________________________
conv2d_183 (Conv2D)             (None, 56, 56, 32)   36864       activation_183[0][0]             
__________________________________________________________________________________________________
concatenate_24 (Concatenate)    (None, 56, 56, 96)   0           max_pooling2d_11[0][0]           
                                                                 conv2d_183[0][0]                 
__________________________________________________________________________________________________
batch_normalization_109 (BatchN (None, 56, 56, 96)   384         concatenate_24[0][0]             
__________________________________________________________________________________________________
activation_184 (Activation)     (None, 56, 56, 96)   0           batch_normalization_109[0][0]    
__________________________________________________________________________________________________
conv2d_184 (Conv2D)             (None, 56, 56, 128)  12288       activation_184[0][0]             
__________________________________________________________________________________________________
batch_normalization_110 (BatchN (None, 56, 56, 128)  512         conv2d_184[0][0]                 
__________________________________________________________________________________________________
activation_185 (Activation)     (None, 56, 56, 128)  0           batch_normalization_110[0][0]    
__________________________________________________________________________________________________
conv2d_185 (Conv2D)             (None, 56, 56, 32)   36864       activation_185[0][0]             
__________________________________________________________________________________________________
concatenate_25 (Concatenate)    (None, 56, 56, 128)  0           concatenate_24[0][0]             
                                                                 conv2d_185[0][0]                 
__________________________________________________________________________________________________
batch_normalization_111 (BatchN (None, 56, 56, 128)  512         concatenate_25[0][0]             
__________________________________________________________________________________________________
activation_186 (Activation)     (None, 56, 56, 128)  0           batch_normalization_111[0][0]    
__________________________________________________________________________________________________
conv2d_186 (Conv2D)             (None, 56, 56, 128)  16384       activation_186[0][0]             
__________________________________________________________________________________________________
batch_normalization_112 (BatchN (None, 56, 56, 128)  512         conv2d_186[0][0]                 
__________________________________________________________________________________________________
activation_187 (Activation)     (None, 56, 56, 128)  0           batch_normalization_112[0][0]    
__________________________________________________________________________________________________
conv2d_187 (Conv2D)             (None, 56, 56, 32)   36864       activation_187[0][0]             
__________________________________________________________________________________________________
concatenate_26 (Concatenate)    (None, 56, 56, 160)  0           concatenate_25[0][0]             
                                                                 conv2d_187[0][0]                 
__________________________________________________________________________________________________
batch_normalization_113 (BatchN (None, 56, 56, 160)  640         concatenate_26[0][0]             
__________________________________________________________________________________________________
activation_188 (Activation)     (None, 56, 56, 160)  0           batch_normalization_113[0][0]    
__________________________________________________________________________________________________
conv2d_188 (Conv2D)             (None, 56, 56, 128)  20480       activation_188[0][0]             
__________________________________________________________________________________________________
batch_normalization_114 (BatchN (None, 56, 56, 128)  512         conv2d_188[0][0]                 
__________________________________________________________________________________________________
activation_189 (Activation)     (None, 56, 56, 128)  0           batch_normalization_114[0][0]    
__________________________________________________________________________________________________
conv2d_189 (Conv2D)             (None, 56, 56, 32)   36864       activation_189[0][0]             
__________________________________________________________________________________________________
concatenate_27 (Concatenate)    (None, 56, 56, 192)  0           concatenate_26[0][0]             
                                                                 conv2d_189[0][0]                 
__________________________________________________________________________________________________
batch_normalization_115 (BatchN (None, 56, 56, 192)  768         concatenate_27[0][0]             
__________________________________________________________________________________________________
activation_190 (Activation)     (None, 56, 56, 192)  0           batch_normalization_115[0][0]    
__________________________________________________________________________________________________
conv2d_190 (Conv2D)             (None, 56, 56, 128)  24576       activation_190[0][0]             
__________________________________________________________________________________________________
batch_normalization_116 (BatchN (None, 56, 56, 128)  512         conv2d_190[0][0]                 
__________________________________________________________________________________________________
activation_191 (Activation)     (None, 56, 56, 128)  0           batch_normalization_116[0][0]    
__________________________________________________________________________________________________
conv2d_191 (Conv2D)             (None, 56, 56, 32)   36864       activation_191[0][0]             
__________________________________________________________________________________________________
concatenate_28 (Concatenate)    (None, 56, 56, 224)  0           concatenate_27[0][0]             
                                                                 conv2d_191[0][0]                 
__________________________________________________________________________________________________
batch_normalization_117 (BatchN (None, 56, 56, 224)  896         concatenate_28[0][0]             
__________________________________________________________________________________________________
activation_192 (Activation)     (None, 56, 56, 224)  0           batch_normalization_117[0][0]    
__________________________________________________________________________________________________
conv2d_192 (Conv2D)             (None, 56, 56, 128)  28672       activation_192[0][0]             
__________________________________________________________________________________________________
batch_normalization_118 (BatchN (None, 56, 56, 128)  512         conv2d_192[0][0]                 
__________________________________________________________________________________________________
activation_193 (Activation)     (None, 56, 56, 128)  0           batch_normalization_118[0][0]    
__________________________________________________________________________________________________
conv2d_193 (Conv2D)             (None, 56, 56, 32)   36864       activation_193[0][0]             
__________________________________________________________________________________________________
concatenate_29 (Concatenate)    (None, 56, 56, 256)  0           concatenate_28[0][0]             
                                                                 conv2d_193[0][0]                 
__________________________________________________________________________________________________
batch_normalization_119 (BatchN (None, 56, 56, 256)  1024        concatenate_29[0][0]             
__________________________________________________________________________________________________
activation_194 (Activation)     (None, 56, 56, 256)  0           batch_normalization_119[0][0]    
__________________________________________________________________________________________________
conv2d_194 (Conv2D)             (None, 56, 56, 128)  32768       activation_194[0][0]             
__________________________________________________________________________________________________
average_pooling2d (AveragePooli (None, 28, 28, 128)  0           conv2d_194[0][0]                 
__________________________________________________________________________________________________
batch_normalization_120 (BatchN (None, 28, 28, 128)  512         average_pooling2d[0][0]          
__________________________________________________________________________________________________
activation_195 (Activation)     (None, 28, 28, 128)  0           batch_normalization_120[0][0]    
__________________________________________________________________________________________________
conv2d_195 (Conv2D)             (None, 28, 28, 128)  16384       activation_195[0][0]             
__________________________________________________________________________________________________
batch_normalization_121 (BatchN (None, 28, 28, 128)  512         conv2d_195[0][0]                 
__________________________________________________________________________________________________
activation_196 (Activation)     (None, 28, 28, 128)  0           batch_normalization_121[0][0]    
__________________________________________________________________________________________________
conv2d_196 (Conv2D)             (None, 28, 28, 32)   36864       activation_196[0][0]             
__________________________________________________________________________________________________
concatenate_30 (Concatenate)    (None, 28, 28, 160)  0           average_pooling2d[0][0]          
                                                                 conv2d_196[0][0]                 
__________________________________________________________________________________________________
batch_normalization_122 (BatchN (None, 28, 28, 160)  640         concatenate_30[0][0]             
__________________________________________________________________________________________________
activation_197 (Activation)     (None, 28, 28, 160)  0           batch_normalization_122[0][0]    
__________________________________________________________________________________________________
conv2d_197 (Conv2D)             (None, 28, 28, 128)  20480       activation_197[0][0]             
__________________________________________________________________________________________________
batch_normalization_123 (BatchN (None, 28, 28, 128)  512         conv2d_197[0][0]                 
__________________________________________________________________________________________________
activation_198 (Activation)     (None, 28, 28, 128)  0           batch_normalization_123[0][0]    
__________________________________________________________________________________________________
conv2d_198 (Conv2D)             (None, 28, 28, 32)   36864       activation_198[0][0]             
__________________________________________________________________________________________________
concatenate_31 (Concatenate)    (None, 28, 28, 192)  0           concatenate_30[0][0]             
                                                                 conv2d_198[0][0]                 
__________________________________________________________________________________________________
batch_normalization_124 (BatchN (None, 28, 28, 192)  768         concatenate_31[0][0]             
__________________________________________________________________________________________________
activation_199 (Activation)     (None, 28, 28, 192)  0           batch_normalization_124[0][0]    
__________________________________________________________________________________________________
conv2d_199 (Conv2D)             (None, 28, 28, 128)  24576       activation_199[0][0]             
__________________________________________________________________________________________________
batch_normalization_125 (BatchN (None, 28, 28, 128)  512         conv2d_199[0][0]                 
__________________________________________________________________________________________________
activation_200 (Activation)     (None, 28, 28, 128)  0           batch_normalization_125[0][0]    
__________________________________________________________________________________________________
conv2d_200 (Conv2D)             (None, 28, 28, 32)   36864       activation_200[0][0]             
__________________________________________________________________________________________________
concatenate_32 (Concatenate)    (None, 28, 28, 224)  0           concatenate_31[0][0]             
                                                                 conv2d_200[0][0]                 
__________________________________________________________________________________________________
batch_normalization_126 (BatchN (None, 28, 28, 224)  896         concatenate_32[0][0]             
__________________________________________________________________________________________________
activation_201 (Activation)     (None, 28, 28, 224)  0           batch_normalization_126[0][0]    
__________________________________________________________________________________________________
conv2d_201 (Conv2D)             (None, 28, 28, 128)  28672       activation_201[0][0]             
__________________________________________________________________________________________________
batch_normalization_127 (BatchN (None, 28, 28, 128)  512         conv2d_201[0][0]                 
__________________________________________________________________________________________________
activation_202 (Activation)     (None, 28, 28, 128)  0           batch_normalization_127[0][0]    
__________________________________________________________________________________________________
conv2d_202 (Conv2D)             (None, 28, 28, 32)   36864       activation_202[0][0]             
__________________________________________________________________________________________________
concatenate_33 (Concatenate)    (None, 28, 28, 256)  0           concatenate_32[0][0]             
                                                                 conv2d_202[0][0]                 
__________________________________________________________________________________________________
batch_normalization_128 (BatchN (None, 28, 28, 256)  1024        concatenate_33[0][0]             
__________________________________________________________________________________________________
activation_203 (Activation)     (None, 28, 28, 256)  0           batch_normalization_128[0][0]    
__________________________________________________________________________________________________
conv2d_203 (Conv2D)             (None, 28, 28, 128)  32768       activation_203[0][0]             
__________________________________________________________________________________________________
batch_normalization_129 (BatchN (None, 28, 28, 128)  512         conv2d_203[0][0]                 
__________________________________________________________________________________________________
activation_204 (Activation)     (None, 28, 28, 128)  0           batch_normalization_129[0][0]    
__________________________________________________________________________________________________
conv2d_204 (Conv2D)             (None, 28, 28, 32)   36864       activation_204[0][0]             
__________________________________________________________________________________________________
concatenate_34 (Concatenate)    (None, 28, 28, 288)  0           concatenate_33[0][0]             
                                                                 conv2d_204[0][0]                 
__________________________________________________________________________________________________
batch_normalization_130 (BatchN (None, 28, 28, 288)  1152        concatenate_34[0][0]             
__________________________________________________________________________________________________
activation_205 (Activation)     (None, 28, 28, 288)  0           batch_normalization_130[0][0]    
__________________________________________________________________________________________________
conv2d_205 (Conv2D)             (None, 28, 28, 128)  36864       activation_205[0][0]             
__________________________________________________________________________________________________
batch_normalization_131 (BatchN (None, 28, 28, 128)  512         conv2d_205[0][0]                 
__________________________________________________________________________________________________
activation_206 (Activation)     (None, 28, 28, 128)  0           batch_normalization_131[0][0]    
__________________________________________________________________________________________________
conv2d_206 (Conv2D)             (None, 28, 28, 32)   36864       activation_206[0][0]             
__________________________________________________________________________________________________
concatenate_35 (Concatenate)    (None, 28, 28, 320)  0           concatenate_34[0][0]             
                                                                 conv2d_206[0][0]                 
__________________________________________________________________________________________________
batch_normalization_132 (BatchN (None, 28, 28, 320)  1280        concatenate_35[0][0]             
__________________________________________________________________________________________________
activation_207 (Activation)     (None, 28, 28, 320)  0           batch_normalization_132[0][0]    
__________________________________________________________________________________________________
conv2d_207 (Conv2D)             (None, 28, 28, 128)  40960       activation_207[0][0]             
__________________________________________________________________________________________________
batch_normalization_133 (BatchN (None, 28, 28, 128)  512         conv2d_207[0][0]                 
__________________________________________________________________________________________________
activation_208 (Activation)     (None, 28, 28, 128)  0           batch_normalization_133[0][0]    
__________________________________________________________________________________________________
conv2d_208 (Conv2D)             (None, 28, 28, 32)   36864       activation_208[0][0]             
__________________________________________________________________________________________________
concatenate_36 (Concatenate)    (None, 28, 28, 352)  0           concatenate_35[0][0]             
                                                                 conv2d_208[0][0]                 
__________________________________________________________________________________________________
batch_normalization_134 (BatchN (None, 28, 28, 352)  1408        concatenate_36[0][0]             
__________________________________________________________________________________________________
activation_209 (Activation)     (None, 28, 28, 352)  0           batch_normalization_134[0][0]    
__________________________________________________________________________________________________
conv2d_209 (Conv2D)             (None, 28, 28, 128)  45056       activation_209[0][0]             
__________________________________________________________________________________________________
batch_normalization_135 (BatchN (None, 28, 28, 128)  512         conv2d_209[0][0]                 
__________________________________________________________________________________________________
activation_210 (Activation)     (None, 28, 28, 128)  0           batch_normalization_135[0][0]    
__________________________________________________________________________________________________
conv2d_210 (Conv2D)             (None, 28, 28, 32)   36864       activation_210[0][0]             
__________________________________________________________________________________________________
concatenate_37 (Concatenate)    (None, 28, 28, 384)  0           concatenate_36[0][0]             
                                                                 conv2d_210[0][0]                 
__________________________________________________________________________________________________
batch_normalization_136 (BatchN (None, 28, 28, 384)  1536        concatenate_37[0][0]             
__________________________________________________________________________________________________
activation_211 (Activation)     (None, 28, 28, 384)  0           batch_normalization_136[0][0]    
__________________________________________________________________________________________________
conv2d_211 (Conv2D)             (None, 28, 28, 128)  49152       activation_211[0][0]             
__________________________________________________________________________________________________
batch_normalization_137 (BatchN (None, 28, 28, 128)  512         conv2d_211[0][0]                 
__________________________________________________________________________________________________
activation_212 (Activation)     (None, 28, 28, 128)  0           batch_normalization_137[0][0]    
__________________________________________________________________________________________________
conv2d_212 (Conv2D)             (None, 28, 28, 32)   36864       activation_212[0][0]             
__________________________________________________________________________________________________
concatenate_38 (Concatenate)    (None, 28, 28, 416)  0           concatenate_37[0][0]             
                                                                 conv2d_212[0][0]                 
__________________________________________________________________________________________________
batch_normalization_138 (BatchN (None, 28, 28, 416)  1664        concatenate_38[0][0]             
__________________________________________________________________________________________________
activation_213 (Activation)     (None, 28, 28, 416)  0           batch_normalization_138[0][0]    
__________________________________________________________________________________________________
conv2d_213 (Conv2D)             (None, 28, 28, 128)  53248       activation_213[0][0]             
__________________________________________________________________________________________________
batch_normalization_139 (BatchN (None, 28, 28, 128)  512         conv2d_213[0][0]                 
__________________________________________________________________________________________________
activation_214 (Activation)     (None, 28, 28, 128)  0           batch_normalization_139[0][0]    
__________________________________________________________________________________________________
conv2d_214 (Conv2D)             (None, 28, 28, 32)   36864       activation_214[0][0]             
__________________________________________________________________________________________________
concatenate_39 (Concatenate)    (None, 28, 28, 448)  0           concatenate_38[0][0]             
                                                                 conv2d_214[0][0]                 
__________________________________________________________________________________________________
batch_normalization_140 (BatchN (None, 28, 28, 448)  1792        concatenate_39[0][0]             
__________________________________________________________________________________________________
activation_215 (Activation)     (None, 28, 28, 448)  0           batch_normalization_140[0][0]    
__________________________________________________________________________________________________
conv2d_215 (Conv2D)             (None, 28, 28, 128)  57344       activation_215[0][0]             
__________________________________________________________________________________________________
batch_normalization_141 (BatchN (None, 28, 28, 128)  512         conv2d_215[0][0]                 
__________________________________________________________________________________________________
activation_216 (Activation)     (None, 28, 28, 128)  0           batch_normalization_141[0][0]    
__________________________________________________________________________________________________
conv2d_216 (Conv2D)             (None, 28, 28, 32)   36864       activation_216[0][0]             
__________________________________________________________________________________________________
concatenate_40 (Concatenate)    (None, 28, 28, 480)  0           concatenate_39[0][0]             
                                                                 conv2d_216[0][0]                 
__________________________________________________________________________________________________
batch_normalization_142 (BatchN (None, 28, 28, 480)  1920        concatenate_40[0][0]             
__________________________________________________________________________________________________
activation_217 (Activation)     (None, 28, 28, 480)  0           batch_normalization_142[0][0]    
__________________________________________________________________________________________________
conv2d_217 (Conv2D)             (None, 28, 28, 128)  61440       activation_217[0][0]             
__________________________________________________________________________________________________
batch_normalization_143 (BatchN (None, 28, 28, 128)  512         conv2d_217[0][0]                 
__________________________________________________________________________________________________
activation_218 (Activation)     (None, 28, 28, 128)  0           batch_normalization_143[0][0]    
__________________________________________________________________________________________________
conv2d_218 (Conv2D)             (None, 28, 28, 32)   36864       activation_218[0][0]             
__________________________________________________________________________________________________
concatenate_41 (Concatenate)    (None, 28, 28, 512)  0           concatenate_40[0][0]             
                                                                 conv2d_218[0][0]                 
__________________________________________________________________________________________________
batch_normalization_144 (BatchN (None, 28, 28, 512)  2048        concatenate_41[0][0]             
__________________________________________________________________________________________________
activation_219 (Activation)     (None, 28, 28, 512)  0           batch_normalization_144[0][0]    
__________________________________________________________________________________________________
conv2d_219 (Conv2D)             (None, 28, 28, 256)  131072      activation_219[0][0]             
__________________________________________________________________________________________________
average_pooling2d_1 (AveragePoo (None, 14, 14, 256)  0           conv2d_219[0][0]                 
__________________________________________________________________________________________________
batch_normalization_145 (BatchN (None, 14, 14, 256)  1024        average_pooling2d_1[0][0]        
__________________________________________________________________________________________________
activation_220 (Activation)     (None, 14, 14, 256)  0           batch_normalization_145[0][0]    
__________________________________________________________________________________________________
conv2d_220 (Conv2D)             (None, 14, 14, 128)  32768       activation_220[0][0]             
__________________________________________________________________________________________________
batch_normalization_146 (BatchN (None, 14, 14, 128)  512         conv2d_220[0][0]                 
__________________________________________________________________________________________________
activation_221 (Activation)     (None, 14, 14, 128)  0           batch_normalization_146[0][0]    
__________________________________________________________________________________________________
conv2d_221 (Conv2D)             (None, 14, 14, 32)   36864       activation_221[0][0]             
__________________________________________________________________________________________________
concatenate_42 (Concatenate)    (None, 14, 14, 288)  0           average_pooling2d_1[0][0]        
                                                                 conv2d_221[0][0]                 
__________________________________________________________________________________________________
batch_normalization_147 (BatchN (None, 14, 14, 288)  1152        concatenate_42[0][0]             
__________________________________________________________________________________________________
activation_222 (Activation)     (None, 14, 14, 288)  0           batch_normalization_147[0][0]    
__________________________________________________________________________________________________
conv2d_222 (Conv2D)             (None, 14, 14, 128)  36864       activation_222[0][0]             
__________________________________________________________________________________________________
batch_normalization_148 (BatchN (None, 14, 14, 128)  512         conv2d_222[0][0]                 
__________________________________________________________________________________________________
activation_223 (Activation)     (None, 14, 14, 128)  0           batch_normalization_148[0][0]    
__________________________________________________________________________________________________
conv2d_223 (Conv2D)             (None, 14, 14, 32)   36864       activation_223[0][0]             
__________________________________________________________________________________________________
concatenate_43 (Concatenate)    (None, 14, 14, 320)  0           concatenate_42[0][0]             
                                                                 conv2d_223[0][0]                 
__________________________________________________________________________________________________
batch_normalization_149 (BatchN (None, 14, 14, 320)  1280        concatenate_43[0][0]             
__________________________________________________________________________________________________
activation_224 (Activation)     (None, 14, 14, 320)  0           batch_normalization_149[0][0]    
__________________________________________________________________________________________________
conv2d_224 (Conv2D)             (None, 14, 14, 128)  40960       activation_224[0][0]             
__________________________________________________________________________________________________
batch_normalization_150 (BatchN (None, 14, 14, 128)  512         conv2d_224[0][0]                 
__________________________________________________________________________________________________
activation_225 (Activation)     (None, 14, 14, 128)  0           batch_normalization_150[0][0]    
__________________________________________________________________________________________________
conv2d_225 (Conv2D)             (None, 14, 14, 32)   36864       activation_225[0][0]             
__________________________________________________________________________________________________
concatenate_44 (Concatenate)    (None, 14, 14, 352)  0           concatenate_43[0][0]             
                                                                 conv2d_225[0][0]                 
__________________________________________________________________________________________________
batch_normalization_151 (BatchN (None, 14, 14, 352)  1408        concatenate_44[0][0]             
__________________________________________________________________________________________________
activation_226 (Activation)     (None, 14, 14, 352)  0           batch_normalization_151[0][0]    
__________________________________________________________________________________________________
conv2d_226 (Conv2D)             (None, 14, 14, 128)  45056       activation_226[0][0]             
__________________________________________________________________________________________________
batch_normalization_152 (BatchN (None, 14, 14, 128)  512         conv2d_226[0][0]                 
__________________________________________________________________________________________________
activation_227 (Activation)     (None, 14, 14, 128)  0           batch_normalization_152[0][0]    
__________________________________________________________________________________________________
conv2d_227 (Conv2D)             (None, 14, 14, 32)   36864       activation_227[0][0]             
__________________________________________________________________________________________________
concatenate_45 (Concatenate)    (None, 14, 14, 384)  0           concatenate_44[0][0]             
                                                                 conv2d_227[0][0]                 
__________________________________________________________________________________________________
batch_normalization_153 (BatchN (None, 14, 14, 384)  1536        concatenate_45[0][0]             
__________________________________________________________________________________________________
activation_228 (Activation)     (None, 14, 14, 384)  0           batch_normalization_153[0][0]    
__________________________________________________________________________________________________
conv2d_228 (Conv2D)             (None, 14, 14, 128)  49152       activation_228[0][0]             
__________________________________________________________________________________________________
batch_normalization_154 (BatchN (None, 14, 14, 128)  512         conv2d_228[0][0]                 
__________________________________________________________________________________________________
activation_229 (Activation)     (None, 14, 14, 128)  0           batch_normalization_154[0][0]    
__________________________________________________________________________________________________
conv2d_229 (Conv2D)             (None, 14, 14, 32)   36864       activation_229[0][0]             
__________________________________________________________________________________________________
concatenate_46 (Concatenate)    (None, 14, 14, 416)  0           concatenate_45[0][0]             
                                                                 conv2d_229[0][0]                 
__________________________________________________________________________________________________
batch_normalization_155 (BatchN (None, 14, 14, 416)  1664        concatenate_46[0][0]             
__________________________________________________________________________________________________
activation_230 (Activation)     (None, 14, 14, 416)  0           batch_normalization_155[0][0]    
__________________________________________________________________________________________________
conv2d_230 (Conv2D)             (None, 14, 14, 128)  53248       activation_230[0][0]             
__________________________________________________________________________________________________
batch_normalization_156 (BatchN (None, 14, 14, 128)  512         conv2d_230[0][0]                 
__________________________________________________________________________________________________
activation_231 (Activation)     (None, 14, 14, 128)  0           batch_normalization_156[0][0]    
__________________________________________________________________________________________________
conv2d_231 (Conv2D)             (None, 14, 14, 32)   36864       activation_231[0][0]             
__________________________________________________________________________________________________
concatenate_47 (Concatenate)    (None, 14, 14, 448)  0           concatenate_46[0][0]             
                                                                 conv2d_231[0][0]                 
__________________________________________________________________________________________________
batch_normalization_157 (BatchN (None, 14, 14, 448)  1792        concatenate_47[0][0]             
__________________________________________________________________________________________________
activation_232 (Activation)     (None, 14, 14, 448)  0           batch_normalization_157[0][0]    
__________________________________________________________________________________________________
conv2d_232 (Conv2D)             (None, 14, 14, 128)  57344       activation_232[0][0]             
__________________________________________________________________________________________________
batch_normalization_158 (BatchN (None, 14, 14, 128)  512         conv2d_232[0][0]                 
__________________________________________________________________________________________________
activation_233 (Activation)     (None, 14, 14, 128)  0           batch_normalization_158[0][0]    
__________________________________________________________________________________________________
conv2d_233 (Conv2D)             (None, 14, 14, 32)   36864       activation_233[0][0]             
__________________________________________________________________________________________________
concatenate_48 (Concatenate)    (None, 14, 14, 480)  0           concatenate_47[0][0]             
                                                                 conv2d_233[0][0]                 
__________________________________________________________________________________________________
batch_normalization_159 (BatchN (None, 14, 14, 480)  1920        concatenate_48[0][0]             
__________________________________________________________________________________________________
activation_234 (Activation)     (None, 14, 14, 480)  0           batch_normalization_159[0][0]    
__________________________________________________________________________________________________
conv2d_234 (Conv2D)             (None, 14, 14, 128)  61440       activation_234[0][0]             
__________________________________________________________________________________________________
batch_normalization_160 (BatchN (None, 14, 14, 128)  512         conv2d_234[0][0]                 
__________________________________________________________________________________________________
activation_235 (Activation)     (None, 14, 14, 128)  0           batch_normalization_160[0][0]    
__________________________________________________________________________________________________
conv2d_235 (Conv2D)             (None, 14, 14, 32)   36864       activation_235[0][0]             
__________________________________________________________________________________________________
concatenate_49 (Concatenate)    (None, 14, 14, 512)  0           concatenate_48[0][0]             
                                                                 conv2d_235[0][0]                 
__________________________________________________________________________________________________
batch_normalization_161 (BatchN (None, 14, 14, 512)  2048        concatenate_49[0][0]             
__________________________________________________________________________________________________
activation_236 (Activation)     (None, 14, 14, 512)  0           batch_normalization_161[0][0]    
__________________________________________________________________________________________________
conv2d_236 (Conv2D)             (None, 14, 14, 128)  65536       activation_236[0][0]             
__________________________________________________________________________________________________
batch_normalization_162 (BatchN (None, 14, 14, 128)  512         conv2d_236[0][0]                 
__________________________________________________________________________________________________
activation_237 (Activation)     (None, 14, 14, 128)  0           batch_normalization_162[0][0]    
__________________________________________________________________________________________________
conv2d_237 (Conv2D)             (None, 14, 14, 32)   36864       activation_237[0][0]             
__________________________________________________________________________________________________
concatenate_50 (Concatenate)    (None, 14, 14, 544)  0           concatenate_49[0][0]             
                                                                 conv2d_237[0][0]                 
__________________________________________________________________________________________________
batch_normalization_163 (BatchN (None, 14, 14, 544)  2176        concatenate_50[0][0]             
__________________________________________________________________________________________________
activation_238 (Activation)     (None, 14, 14, 544)  0           batch_normalization_163[0][0]    
__________________________________________________________________________________________________
conv2d_238 (Conv2D)             (None, 14, 14, 128)  69632       activation_238[0][0]             
__________________________________________________________________________________________________
batch_normalization_164 (BatchN (None, 14, 14, 128)  512         conv2d_238[0][0]                 
__________________________________________________________________________________________________
activation_239 (Activation)     (None, 14, 14, 128)  0           batch_normalization_164[0][0]    
__________________________________________________________________________________________________
conv2d_239 (Conv2D)             (None, 14, 14, 32)   36864       activation_239[0][0]             
__________________________________________________________________________________________________
concatenate_51 (Concatenate)    (None, 14, 14, 576)  0           concatenate_50[0][0]             
                                                                 conv2d_239[0][0]                 
__________________________________________________________________________________________________
batch_normalization_165 (BatchN (None, 14, 14, 576)  2304        concatenate_51[0][0]             
__________________________________________________________________________________________________
activation_240 (Activation)     (None, 14, 14, 576)  0           batch_normalization_165[0][0]    
__________________________________________________________________________________________________
conv2d_240 (Conv2D)             (None, 14, 14, 128)  73728       activation_240[0][0]             
__________________________________________________________________________________________________
batch_normalization_166 (BatchN (None, 14, 14, 128)  512         conv2d_240[0][0]                 
__________________________________________________________________________________________________
activation_241 (Activation)     (None, 14, 14, 128)  0           batch_normalization_166[0][0]    
__________________________________________________________________________________________________
conv2d_241 (Conv2D)             (None, 14, 14, 32)   36864       activation_241[0][0]             
__________________________________________________________________________________________________
concatenate_52 (Concatenate)    (None, 14, 14, 608)  0           concatenate_51[0][0]             
                                                                 conv2d_241[0][0]                 
__________________________________________________________________________________________________
batch_normalization_167 (BatchN (None, 14, 14, 608)  2432        concatenate_52[0][0]             
__________________________________________________________________________________________________
activation_242 (Activation)     (None, 14, 14, 608)  0           batch_normalization_167[0][0]    
__________________________________________________________________________________________________
conv2d_242 (Conv2D)             (None, 14, 14, 128)  77824       activation_242[0][0]             
__________________________________________________________________________________________________
batch_normalization_168 (BatchN (None, 14, 14, 128)  512         conv2d_242[0][0]                 
__________________________________________________________________________________________________
activation_243 (Activation)     (None, 14, 14, 128)  0           batch_normalization_168[0][0]    
__________________________________________________________________________________________________
conv2d_243 (Conv2D)             (None, 14, 14, 32)   36864       activation_243[0][0]             
__________________________________________________________________________________________________
concatenate_53 (Concatenate)    (None, 14, 14, 640)  0           concatenate_52[0][0]             
                                                                 conv2d_243[0][0]                 
__________________________________________________________________________________________________
batch_normalization_169 (BatchN (None, 14, 14, 640)  2560        concatenate_53[0][0]             
__________________________________________________________________________________________________
activation_244 (Activation)     (None, 14, 14, 640)  0           batch_normalization_169[0][0]    
__________________________________________________________________________________________________
conv2d_244 (Conv2D)             (None, 14, 14, 128)  81920       activation_244[0][0]             
__________________________________________________________________________________________________
batch_normalization_170 (BatchN (None, 14, 14, 128)  512         conv2d_244[0][0]                 
__________________________________________________________________________________________________
activation_245 (Activation)     (None, 14, 14, 128)  0           batch_normalization_170[0][0]    
__________________________________________________________________________________________________
conv2d_245 (Conv2D)             (None, 14, 14, 32)   36864       activation_245[0][0]             
__________________________________________________________________________________________________
concatenate_54 (Concatenate)    (None, 14, 14, 672)  0           concatenate_53[0][0]             
                                                                 conv2d_245[0][0]                 
__________________________________________________________________________________________________
batch_normalization_171 (BatchN (None, 14, 14, 672)  2688        concatenate_54[0][0]             
__________________________________________________________________________________________________
activation_246 (Activation)     (None, 14, 14, 672)  0           batch_normalization_171[0][0]    
__________________________________________________________________________________________________
conv2d_246 (Conv2D)             (None, 14, 14, 128)  86016       activation_246[0][0]             
__________________________________________________________________________________________________
batch_normalization_172 (BatchN (None, 14, 14, 128)  512         conv2d_246[0][0]                 
__________________________________________________________________________________________________
activation_247 (Activation)     (None, 14, 14, 128)  0           batch_normalization_172[0][0]    
__________________________________________________________________________________________________
conv2d_247 (Conv2D)             (None, 14, 14, 32)   36864       activation_247[0][0]             
__________________________________________________________________________________________________
concatenate_55 (Concatenate)    (None, 14, 14, 704)  0           concatenate_54[0][0]             
                                                                 conv2d_247[0][0]                 
__________________________________________________________________________________________________
batch_normalization_173 (BatchN (None, 14, 14, 704)  2816        concatenate_55[0][0]             
__________________________________________________________________________________________________
activation_248 (Activation)     (None, 14, 14, 704)  0           batch_normalization_173[0][0]    
__________________________________________________________________________________________________
conv2d_248 (Conv2D)             (None, 14, 14, 128)  90112       activation_248[0][0]             
__________________________________________________________________________________________________
batch_normalization_174 (BatchN (None, 14, 14, 128)  512         conv2d_248[0][0]                 
__________________________________________________________________________________________________
activation_249 (Activation)     (None, 14, 14, 128)  0           batch_normalization_174[0][0]    
__________________________________________________________________________________________________
conv2d_249 (Conv2D)             (None, 14, 14, 32)   36864       activation_249[0][0]             
__________________________________________________________________________________________________
concatenate_56 (Concatenate)    (None, 14, 14, 736)  0           concatenate_55[0][0]             
                                                                 conv2d_249[0][0]                 
__________________________________________________________________________________________________
batch_normalization_175 (BatchN (None, 14, 14, 736)  2944        concatenate_56[0][0]             
__________________________________________________________________________________________________
activation_250 (Activation)     (None, 14, 14, 736)  0           batch_normalization_175[0][0]    
__________________________________________________________________________________________________
conv2d_250 (Conv2D)             (None, 14, 14, 128)  94208       activation_250[0][0]             
__________________________________________________________________________________________________
batch_normalization_176 (BatchN (None, 14, 14, 128)  512         conv2d_250[0][0]                 
__________________________________________________________________________________________________
activation_251 (Activation)     (None, 14, 14, 128)  0           batch_normalization_176[0][0]    
__________________________________________________________________________________________________
conv2d_251 (Conv2D)             (None, 14, 14, 32)   36864       activation_251[0][0]             
__________________________________________________________________________________________________
concatenate_57 (Concatenate)    (None, 14, 14, 768)  0           concatenate_56[0][0]             
                                                                 conv2d_251[0][0]                 
__________________________________________________________________________________________________
batch_normalization_177 (BatchN (None, 14, 14, 768)  3072        concatenate_57[0][0]             
__________________________________________________________________________________________________
activation_252 (Activation)     (None, 14, 14, 768)  0           batch_normalization_177[0][0]    
__________________________________________________________________________________________________
conv2d_252 (Conv2D)             (None, 14, 14, 128)  98304       activation_252[0][0]             
__________________________________________________________________________________________________
batch_normalization_178 (BatchN (None, 14, 14, 128)  512         conv2d_252[0][0]                 
__________________________________________________________________________________________________
activation_253 (Activation)     (None, 14, 14, 128)  0           batch_normalization_178[0][0]    
__________________________________________________________________________________________________
conv2d_253 (Conv2D)             (None, 14, 14, 32)   36864       activation_253[0][0]             
__________________________________________________________________________________________________
concatenate_58 (Concatenate)    (None, 14, 14, 800)  0           concatenate_57[0][0]             
                                                                 conv2d_253[0][0]                 
__________________________________________________________________________________________________
batch_normalization_179 (BatchN (None, 14, 14, 800)  3200        concatenate_58[0][0]             
__________________________________________________________________________________________________
activation_254 (Activation)     (None, 14, 14, 800)  0           batch_normalization_179[0][0]    
__________________________________________________________________________________________________
conv2d_254 (Conv2D)             (None, 14, 14, 128)  102400      activation_254[0][0]             
__________________________________________________________________________________________________
batch_normalization_180 (BatchN (None, 14, 14, 128)  512         conv2d_254[0][0]                 
__________________________________________________________________________________________________
activation_255 (Activation)     (None, 14, 14, 128)  0           batch_normalization_180[0][0]    
__________________________________________________________________________________________________
conv2d_255 (Conv2D)             (None, 14, 14, 32)   36864       activation_255[0][0]             
__________________________________________________________________________________________________
concatenate_59 (Concatenate)    (None, 14, 14, 832)  0           concatenate_58[0][0]             
                                                                 conv2d_255[0][0]                 
__________________________________________________________________________________________________
batch_normalization_181 (BatchN (None, 14, 14, 832)  3328        concatenate_59[0][0]             
__________________________________________________________________________________________________
activation_256 (Activation)     (None, 14, 14, 832)  0           batch_normalization_181[0][0]    
__________________________________________________________________________________________________
conv2d_256 (Conv2D)             (None, 14, 14, 128)  106496      activation_256[0][0]             
__________________________________________________________________________________________________
batch_normalization_182 (BatchN (None, 14, 14, 128)  512         conv2d_256[0][0]                 
__________________________________________________________________________________________________
activation_257 (Activation)     (None, 14, 14, 128)  0           batch_normalization_182[0][0]    
__________________________________________________________________________________________________
conv2d_257 (Conv2D)             (None, 14, 14, 32)   36864       activation_257[0][0]             
__________________________________________________________________________________________________
concatenate_60 (Concatenate)    (None, 14, 14, 864)  0           concatenate_59[0][0]             
                                                                 conv2d_257[0][0]                 
__________________________________________________________________________________________________
batch_normalization_183 (BatchN (None, 14, 14, 864)  3456        concatenate_60[0][0]             
__________________________________________________________________________________________________
activation_258 (Activation)     (None, 14, 14, 864)  0           batch_normalization_183[0][0]    
__________________________________________________________________________________________________
conv2d_258 (Conv2D)             (None, 14, 14, 128)  110592      activation_258[0][0]             
__________________________________________________________________________________________________
batch_normalization_184 (BatchN (None, 14, 14, 128)  512         conv2d_258[0][0]                 
__________________________________________________________________________________________________
activation_259 (Activation)     (None, 14, 14, 128)  0           batch_normalization_184[0][0]    
__________________________________________________________________________________________________
conv2d_259 (Conv2D)             (None, 14, 14, 32)   36864       activation_259[0][0]             
__________________________________________________________________________________________________
concatenate_61 (Concatenate)    (None, 14, 14, 896)  0           concatenate_60[0][0]             
                                                                 conv2d_259[0][0]                 
__________________________________________________________________________________________________
batch_normalization_185 (BatchN (None, 14, 14, 896)  3584        concatenate_61[0][0]             
__________________________________________________________________________________________________
activation_260 (Activation)     (None, 14, 14, 896)  0           batch_normalization_185[0][0]    
__________________________________________________________________________________________________
conv2d_260 (Conv2D)             (None, 14, 14, 128)  114688      activation_260[0][0]             
__________________________________________________________________________________________________
batch_normalization_186 (BatchN (None, 14, 14, 128)  512         conv2d_260[0][0]                 
__________________________________________________________________________________________________
activation_261 (Activation)     (None, 14, 14, 128)  0           batch_normalization_186[0][0]    
__________________________________________________________________________________________________
conv2d_261 (Conv2D)             (None, 14, 14, 32)   36864       activation_261[0][0]             
__________________________________________________________________________________________________
concatenate_62 (Concatenate)    (None, 14, 14, 928)  0           concatenate_61[0][0]             
                                                                 conv2d_261[0][0]                 
__________________________________________________________________________________________________
batch_normalization_187 (BatchN (None, 14, 14, 928)  3712        concatenate_62[0][0]             
__________________________________________________________________________________________________
activation_262 (Activation)     (None, 14, 14, 928)  0           batch_normalization_187[0][0]    
__________________________________________________________________________________________________
conv2d_262 (Conv2D)             (None, 14, 14, 128)  118784      activation_262[0][0]             
__________________________________________________________________________________________________
batch_normalization_188 (BatchN (None, 14, 14, 128)  512         conv2d_262[0][0]                 
__________________________________________________________________________________________________
activation_263 (Activation)     (None, 14, 14, 128)  0           batch_normalization_188[0][0]    
__________________________________________________________________________________________________
conv2d_263 (Conv2D)             (None, 14, 14, 32)   36864       activation_263[0][0]             
__________________________________________________________________________________________________
concatenate_63 (Concatenate)    (None, 14, 14, 960)  0           concatenate_62[0][0]             
                                                                 conv2d_263[0][0]                 
__________________________________________________________________________________________________
batch_normalization_189 (BatchN (None, 14, 14, 960)  3840        concatenate_63[0][0]             
__________________________________________________________________________________________________
activation_264 (Activation)     (None, 14, 14, 960)  0           batch_normalization_189[0][0]    
__________________________________________________________________________________________________
conv2d_264 (Conv2D)             (None, 14, 14, 128)  122880      activation_264[0][0]             
__________________________________________________________________________________________________
batch_normalization_190 (BatchN (None, 14, 14, 128)  512         conv2d_264[0][0]                 
__________________________________________________________________________________________________
activation_265 (Activation)     (None, 14, 14, 128)  0           batch_normalization_190[0][0]    
__________________________________________________________________________________________________
conv2d_265 (Conv2D)             (None, 14, 14, 32)   36864       activation_265[0][0]             
__________________________________________________________________________________________________
concatenate_64 (Concatenate)    (None, 14, 14, 992)  0           concatenate_63[0][0]             
                                                                 conv2d_265[0][0]                 
__________________________________________________________________________________________________
batch_normalization_191 (BatchN (None, 14, 14, 992)  3968        concatenate_64[0][0]             
__________________________________________________________________________________________________
activation_266 (Activation)     (None, 14, 14, 992)  0           batch_normalization_191[0][0]    
__________________________________________________________________________________________________
conv2d_266 (Conv2D)             (None, 14, 14, 128)  126976      activation_266[0][0]             
__________________________________________________________________________________________________
batch_normalization_192 (BatchN (None, 14, 14, 128)  512         conv2d_266[0][0]                 
__________________________________________________________________________________________________
activation_267 (Activation)     (None, 14, 14, 128)  0           batch_normalization_192[0][0]    
__________________________________________________________________________________________________
conv2d_267 (Conv2D)             (None, 14, 14, 32)   36864       activation_267[0][0]             
__________________________________________________________________________________________________
concatenate_65 (Concatenate)    (None, 14, 14, 1024) 0           concatenate_64[0][0]             
                                                                 conv2d_267[0][0]                 
__________________________________________________________________________________________________
batch_normalization_193 (BatchN (None, 14, 14, 1024) 4096        concatenate_65[0][0]             
__________________________________________________________________________________________________
activation_268 (Activation)     (None, 14, 14, 1024) 0           batch_normalization_193[0][0]    
__________________________________________________________________________________________________
conv2d_268 (Conv2D)             (None, 14, 14, 512)  524288      activation_268[0][0]             
__________________________________________________________________________________________________
average_pooling2d_2 (AveragePoo (None, 7, 7, 512)    0           conv2d_268[0][0]                 
__________________________________________________________________________________________________
batch_normalization_194 (BatchN (None, 7, 7, 512)    2048        average_pooling2d_2[0][0]        
__________________________________________________________________________________________________
activation_269 (Activation)     (None, 7, 7, 512)    0           batch_normalization_194[0][0]    
__________________________________________________________________________________________________
conv2d_269 (Conv2D)             (None, 7, 7, 128)    65536       activation_269[0][0]             
__________________________________________________________________________________________________
batch_normalization_195 (BatchN (None, 7, 7, 128)    512         conv2d_269[0][0]                 
__________________________________________________________________________________________________
activation_270 (Activation)     (None, 7, 7, 128)    0           batch_normalization_195[0][0]    
__________________________________________________________________________________________________
conv2d_270 (Conv2D)             (None, 7, 7, 32)     36864       activation_270[0][0]             
__________________________________________________________________________________________________
concatenate_66 (Concatenate)    (None, 7, 7, 544)    0           average_pooling2d_2[0][0]        
                                                                 conv2d_270[0][0]                 
__________________________________________________________________________________________________
batch_normalization_196 (BatchN (None, 7, 7, 544)    2176        concatenate_66[0][0]             
__________________________________________________________________________________________________
activation_271 (Activation)     (None, 7, 7, 544)    0           batch_normalization_196[0][0]    
__________________________________________________________________________________________________
conv2d_271 (Conv2D)             (None, 7, 7, 128)    69632       activation_271[0][0]             
__________________________________________________________________________________________________
batch_normalization_197 (BatchN (None, 7, 7, 128)    512         conv2d_271[0][0]                 
__________________________________________________________________________________________________
activation_272 (Activation)     (None, 7, 7, 128)    0           batch_normalization_197[0][0]    
__________________________________________________________________________________________________
conv2d_272 (Conv2D)             (None, 7, 7, 32)     36864       activation_272[0][0]             
__________________________________________________________________________________________________
concatenate_67 (Concatenate)    (None, 7, 7, 576)    0           concatenate_66[0][0]             
                                                                 conv2d_272[0][0]                 
__________________________________________________________________________________________________
batch_normalization_198 (BatchN (None, 7, 7, 576)    2304        concatenate_67[0][0]             
__________________________________________________________________________________________________
activation_273 (Activation)     (None, 7, 7, 576)    0           batch_normalization_198[0][0]    
__________________________________________________________________________________________________
conv2d_273 (Conv2D)             (None, 7, 7, 128)    73728       activation_273[0][0]             
__________________________________________________________________________________________________
batch_normalization_199 (BatchN (None, 7, 7, 128)    512         conv2d_273[0][0]                 
__________________________________________________________________________________________________
activation_274 (Activation)     (None, 7, 7, 128)    0           batch_normalization_199[0][0]    
__________________________________________________________________________________________________
conv2d_274 (Conv2D)             (None, 7, 7, 32)     36864       activation_274[0][0]             
__________________________________________________________________________________________________
concatenate_68 (Concatenate)    (None, 7, 7, 608)    0           concatenate_67[0][0]             
                                                                 conv2d_274[0][0]                 
__________________________________________________________________________________________________
batch_normalization_200 (BatchN (None, 7, 7, 608)    2432        concatenate_68[0][0]             
__________________________________________________________________________________________________
activation_275 (Activation)     (None, 7, 7, 608)    0           batch_normalization_200[0][0]    
__________________________________________________________________________________________________
conv2d_275 (Conv2D)             (None, 7, 7, 128)    77824       activation_275[0][0]             
__________________________________________________________________________________________________
batch_normalization_201 (BatchN (None, 7, 7, 128)    512         conv2d_275[0][0]                 
__________________________________________________________________________________________________
activation_276 (Activation)     (None, 7, 7, 128)    0           batch_normalization_201[0][0]    
__________________________________________________________________________________________________
conv2d_276 (Conv2D)             (None, 7, 7, 32)     36864       activation_276[0][0]             
__________________________________________________________________________________________________
concatenate_69 (Concatenate)    (None, 7, 7, 640)    0           concatenate_68[0][0]             
                                                                 conv2d_276[0][0]                 
__________________________________________________________________________________________________
batch_normalization_202 (BatchN (None, 7, 7, 640)    2560        concatenate_69[0][0]             
__________________________________________________________________________________________________
activation_277 (Activation)     (None, 7, 7, 640)    0           batch_normalization_202[0][0]    
__________________________________________________________________________________________________
conv2d_277 (Conv2D)             (None, 7, 7, 128)    81920       activation_277[0][0]             
__________________________________________________________________________________________________
batch_normalization_203 (BatchN (None, 7, 7, 128)    512         conv2d_277[0][0]                 
__________________________________________________________________________________________________
activation_278 (Activation)     (None, 7, 7, 128)    0           batch_normalization_203[0][0]    
__________________________________________________________________________________________________
conv2d_278 (Conv2D)             (None, 7, 7, 32)     36864       activation_278[0][0]             
__________________________________________________________________________________________________
concatenate_70 (Concatenate)    (None, 7, 7, 672)    0           concatenate_69[0][0]             
                                                                 conv2d_278[0][0]                 
__________________________________________________________________________________________________
batch_normalization_204 (BatchN (None, 7, 7, 672)    2688        concatenate_70[0][0]             
__________________________________________________________________________________________________
activation_279 (Activation)     (None, 7, 7, 672)    0           batch_normalization_204[0][0]    
__________________________________________________________________________________________________
conv2d_279 (Conv2D)             (None, 7, 7, 128)    86016       activation_279[0][0]             
__________________________________________________________________________________________________
batch_normalization_205 (BatchN (None, 7, 7, 128)    512         conv2d_279[0][0]                 
__________________________________________________________________________________________________
activation_280 (Activation)     (None, 7, 7, 128)    0           batch_normalization_205[0][0]    
__________________________________________________________________________________________________
conv2d_280 (Conv2D)             (None, 7, 7, 32)     36864       activation_280[0][0]             
__________________________________________________________________________________________________
concatenate_71 (Concatenate)    (None, 7, 7, 704)    0           concatenate_70[0][0]             
                                                                 conv2d_280[0][0]                 
__________________________________________________________________________________________________
batch_normalization_206 (BatchN (None, 7, 7, 704)    2816        concatenate_71[0][0]             
__________________________________________________________________________________________________
activation_281 (Activation)     (None, 7, 7, 704)    0           batch_normalization_206[0][0]    
__________________________________________________________________________________________________
conv2d_281 (Conv2D)             (None, 7, 7, 128)    90112       activation_281[0][0]             
__________________________________________________________________________________________________
batch_normalization_207 (BatchN (None, 7, 7, 128)    512         conv2d_281[0][0]                 
__________________________________________________________________________________________________
activation_282 (Activation)     (None, 7, 7, 128)    0           batch_normalization_207[0][0]    
__________________________________________________________________________________________________
conv2d_282 (Conv2D)             (None, 7, 7, 32)     36864       activation_282[0][0]             
__________________________________________________________________________________________________
concatenate_72 (Concatenate)    (None, 7, 7, 736)    0           concatenate_71[0][0]             
                                                                 conv2d_282[0][0]                 
__________________________________________________________________________________________________
batch_normalization_208 (BatchN (None, 7, 7, 736)    2944        concatenate_72[0][0]             
__________________________________________________________________________________________________
activation_283 (Activation)     (None, 7, 7, 736)    0           batch_normalization_208[0][0]    
__________________________________________________________________________________________________
conv2d_283 (Conv2D)             (None, 7, 7, 128)    94208       activation_283[0][0]             
__________________________________________________________________________________________________
batch_normalization_209 (BatchN (None, 7, 7, 128)    512         conv2d_283[0][0]                 
__________________________________________________________________________________________________
activation_284 (Activation)     (None, 7, 7, 128)    0           batch_normalization_209[0][0]    
__________________________________________________________________________________________________
conv2d_284 (Conv2D)             (None, 7, 7, 32)     36864       activation_284[0][0]             
__________________________________________________________________________________________________
concatenate_73 (Concatenate)    (None, 7, 7, 768)    0           concatenate_72[0][0]             
                                                                 conv2d_284[0][0]                 
__________________________________________________________________________________________________
batch_normalization_210 (BatchN (None, 7, 7, 768)    3072        concatenate_73[0][0]             
__________________________________________________________________________________________________
activation_285 (Activation)     (None, 7, 7, 768)    0           batch_normalization_210[0][0]    
__________________________________________________________________________________________________
conv2d_285 (Conv2D)             (None, 7, 7, 128)    98304       activation_285[0][0]             
__________________________________________________________________________________________________
batch_normalization_211 (BatchN (None, 7, 7, 128)    512         conv2d_285[0][0]                 
__________________________________________________________________________________________________
activation_286 (Activation)     (None, 7, 7, 128)    0           batch_normalization_211[0][0]    
__________________________________________________________________________________________________
conv2d_286 (Conv2D)             (None, 7, 7, 32)     36864       activation_286[0][0]             
__________________________________________________________________________________________________
concatenate_74 (Concatenate)    (None, 7, 7, 800)    0           concatenate_73[0][0]             
                                                                 conv2d_286[0][0]                 
__________________________________________________________________________________________________
batch_normalization_212 (BatchN (None, 7, 7, 800)    3200        concatenate_74[0][0]             
__________________________________________________________________________________________________
activation_287 (Activation)     (None, 7, 7, 800)    0           batch_normalization_212[0][0]    
__________________________________________________________________________________________________
conv2d_287 (Conv2D)             (None, 7, 7, 128)    102400      activation_287[0][0]             
__________________________________________________________________________________________________
batch_normalization_213 (BatchN (None, 7, 7, 128)    512         conv2d_287[0][0]                 
__________________________________________________________________________________________________
activation_288 (Activation)     (None, 7, 7, 128)    0           batch_normalization_213[0][0]    
__________________________________________________________________________________________________
conv2d_288 (Conv2D)             (None, 7, 7, 32)     36864       activation_288[0][0]             
__________________________________________________________________________________________________
concatenate_75 (Concatenate)    (None, 7, 7, 832)    0           concatenate_74[0][0]             
                                                                 conv2d_288[0][0]                 
__________________________________________________________________________________________________
batch_normalization_214 (BatchN (None, 7, 7, 832)    3328        concatenate_75[0][0]             
__________________________________________________________________________________________________
activation_289 (Activation)     (None, 7, 7, 832)    0           batch_normalization_214[0][0]    
__________________________________________________________________________________________________
conv2d_289 (Conv2D)             (None, 7, 7, 128)    106496      activation_289[0][0]             
__________________________________________________________________________________________________
batch_normalization_215 (BatchN (None, 7, 7, 128)    512         conv2d_289[0][0]                 
__________________________________________________________________________________________________
activation_290 (Activation)     (None, 7, 7, 128)    0           batch_normalization_215[0][0]    
__________________________________________________________________________________________________
conv2d_290 (Conv2D)             (None, 7, 7, 32)     36864       activation_290[0][0]             
__________________________________________________________________________________________________
concatenate_76 (Concatenate)    (None, 7, 7, 864)    0           concatenate_75[0][0]             
                                                                 conv2d_290[0][0]                 
__________________________________________________________________________________________________
batch_normalization_216 (BatchN (None, 7, 7, 864)    3456        concatenate_76[0][0]             
__________________________________________________________________________________________________
activation_291 (Activation)     (None, 7, 7, 864)    0           batch_normalization_216[0][0]    
__________________________________________________________________________________________________
conv2d_291 (Conv2D)             (None, 7, 7, 128)    110592      activation_291[0][0]             
__________________________________________________________________________________________________
batch_normalization_217 (BatchN (None, 7, 7, 128)    512         conv2d_291[0][0]                 
__________________________________________________________________________________________________
activation_292 (Activation)     (None, 7, 7, 128)    0           batch_normalization_217[0][0]    
__________________________________________________________________________________________________
conv2d_292 (Conv2D)             (None, 7, 7, 32)     36864       activation_292[0][0]             
__________________________________________________________________________________________________
concatenate_77 (Concatenate)    (None, 7, 7, 896)    0           concatenate_76[0][0]             
                                                                 conv2d_292[0][0]                 
__________________________________________________________________________________________________
batch_normalization_218 (BatchN (None, 7, 7, 896)    3584        concatenate_77[0][0]             
__________________________________________________________________________________________________
activation_293 (Activation)     (None, 7, 7, 896)    0           batch_normalization_218[0][0]    
__________________________________________________________________________________________________
conv2d_293 (Conv2D)             (None, 7, 7, 128)    114688      activation_293[0][0]             
__________________________________________________________________________________________________
batch_normalization_219 (BatchN (None, 7, 7, 128)    512         conv2d_293[0][0]                 
__________________________________________________________________________________________________
activation_294 (Activation)     (None, 7, 7, 128)    0           batch_normalization_219[0][0]    
__________________________________________________________________________________________________
conv2d_294 (Conv2D)             (None, 7, 7, 32)     36864       activation_294[0][0]             
__________________________________________________________________________________________________
concatenate_78 (Concatenate)    (None, 7, 7, 928)    0           concatenate_77[0][0]             
                                                                 conv2d_294[0][0]                 
__________________________________________________________________________________________________
batch_normalization_220 (BatchN (None, 7, 7, 928)    3712        concatenate_78[0][0]             
__________________________________________________________________________________________________
activation_295 (Activation)     (None, 7, 7, 928)    0           batch_normalization_220[0][0]    
__________________________________________________________________________________________________
conv2d_295 (Conv2D)             (None, 7, 7, 128)    118784      activation_295[0][0]             
__________________________________________________________________________________________________
batch_normalization_221 (BatchN (None, 7, 7, 128)    512         conv2d_295[0][0]                 
__________________________________________________________________________________________________
activation_296 (Activation)     (None, 7, 7, 128)    0           batch_normalization_221[0][0]    
__________________________________________________________________________________________________
conv2d_296 (Conv2D)             (None, 7, 7, 32)     36864       activation_296[0][0]             
__________________________________________________________________________________________________
concatenate_79 (Concatenate)    (None, 7, 7, 960)    0           concatenate_78[0][0]             
                                                                 conv2d_296[0][0]                 
__________________________________________________________________________________________________
batch_normalization_222 (BatchN (None, 7, 7, 960)    3840        concatenate_79[0][0]             
__________________________________________________________________________________________________
activation_297 (Activation)     (None, 7, 7, 960)    0           batch_normalization_222[0][0]    
__________________________________________________________________________________________________
conv2d_297 (Conv2D)             (None, 7, 7, 128)    122880      activation_297[0][0]             
__________________________________________________________________________________________________
batch_normalization_223 (BatchN (None, 7, 7, 128)    512         conv2d_297[0][0]                 
__________________________________________________________________________________________________
activation_298 (Activation)     (None, 7, 7, 128)    0           batch_normalization_223[0][0]    
__________________________________________________________________________________________________
conv2d_298 (Conv2D)             (None, 7, 7, 32)     36864       activation_298[0][0]             
__________________________________________________________________________________________________
concatenate_80 (Concatenate)    (None, 7, 7, 992)    0           concatenate_79[0][0]             
                                                                 conv2d_298[0][0]                 
__________________________________________________________________________________________________
batch_normalization_224 (BatchN (None, 7, 7, 992)    3968        concatenate_80[0][0]             
__________________________________________________________________________________________________
activation_299 (Activation)     (None, 7, 7, 992)    0           batch_normalization_224[0][0]    
__________________________________________________________________________________________________
conv2d_299 (Conv2D)             (None, 7, 7, 128)    126976      activation_299[0][0]             
__________________________________________________________________________________________________
batch_normalization_225 (BatchN (None, 7, 7, 128)    512         conv2d_299[0][0]                 
__________________________________________________________________________________________________
activation_300 (Activation)     (None, 7, 7, 128)    0           batch_normalization_225[0][0]    
__________________________________________________________________________________________________
conv2d_300 (Conv2D)             (None, 7, 7, 32)     36864       activation_300[0][0]             
__________________________________________________________________________________________________
concatenate_81 (Concatenate)    (None, 7, 7, 1024)   0           concatenate_80[0][0]             
                                                                 conv2d_300[0][0]                 
__________________________________________________________________________________________________
batch_normalization_226 (BatchN (None, 7, 7, 1024)   4096        concatenate_81[0][0]             
__________________________________________________________________________________________________
activation_301 (Activation)     (None, 7, 7, 1024)   0           batch_normalization_226[0][0]    
__________________________________________________________________________________________________
global_avg_pooling (GlobalAvera (None, 1024)         0           activation_301[0][0]             
__________________________________________________________________________________________________
dense_2 (Dense)                 (None, 10)           10250       global_avg_pooling[0][0]         
==================================================================================================
Total params: 7,047,754
Trainable params: 6,964,106
Non-trainable params: 83,648
__________________________________________________________________________________________________
WARNING:tensorflow:`period` argument is deprecated. Please use `save_freq` to specify the frequency in number of samples seen.
…
